iris_model.pt (torch, 3046 bytes, 6 tensors)

fc1.weight f4 [8, 4]
-0.26355362 -0.273382 0.3005302 -0.33081234 -0.23504162 0.2719918 -0.3718117 0.24521405
0.48061684 -0.36661223 0.56360084 0.73645043 0.7347653 -0.5059612 0.30860445 1.2177017
0.9169871 0.55856943 -0.92621404 -0.9499817 -0.44147742 0.33135587 -0.043389738 0.3444931
0.9713958 0.3637912 -0.7691681 -0.49717182 -0.32082057 -0.11111885 0.2972406 -0.2722692
00000000: 80f0 86be baf8 8bbe 18df 993e 3c60 a9be
00000010: c0ae 70be 8242 8b3e 1a5e bebe 6419 7b3e
00000020: 6913 f63e 99b4 bbbe 2548 103f 0488 3c3f
00000030: 9419 3c3f ac86 01bf 6701 9e3e a6dd 9b3f
00000040: abbf 6a3f 68fe 0e3f 5d1c 6dbf 0032 73bf
00000050: 5409 e2be 7aa7 a93e 70b9 31bd 6661 b03e
00000060: 65ad 783f d742 ba3e 33e8 44bf 4e8d febe
00000070: 9842 a4be 4892 e3bd ec2f 983e de66 8bbe

fc1.bias f4 [8]
-0.024460495 -0.06786382 -0.64241374 -0.35915324 1.0711881 -0.18772572 1.2539554 -0.16261977
00000000: 6061 c8bc 30fc 8abd 3a75 24bf efe2 b7be
00000010: b11c 893f 2c3b 40be 9c81 a03f cc85 26be

fc2.weight f4 [9, 8]
0.14564589 0.14630124 -0.18197796 -0.49039984 0.6502061 -0.08166626 0.42362657 -0.21205322
-0.0360772 0.30310175 -0.30678648 0.013644904 -0.004612386 -0.30217582 -0.068486094 -0.324076
0.07638925 0.05954224 0.3565101 0.22817203 0.14585423 -0.12747172 0.5021565 0.27504715
0.11330062 -0.3520173 -0.36722982 -0.45681083 1.0185583 -0.10341424 1.2000582 0.10925037
-0.31854436 0.07436499 -0.19739646 0.048167814 -0.40328947 -0.025864512 0.08650873 0.12529722
0.16635701 0.2993444 0.90348405 0.6351754 -0.7285947 0.023269862 -0.60775 -0.08153543
0.046528637 0.0049132705 0.5836688 0.85540146 -0.5535286 -0.3007109 -0.24080738 -0.11700745
0.034553558 -0.3205928 0.14028212 -0.24245341 -0.04009214 0.30350795 0.08459774 0.29479185
-0.19164184 -0.3289046 -0.39033377 -0.21509594 0.23406418 -0.023992807 0.40296042 0.30833766
00000000: 3224 153e fecf 153e 6e58 3abe b015 fbbe
00000010: e873 263f a440 a7bd 95e5 d83e 7b24 59be
00000020: b0c5 13bd 2730 9b3e 1e13 9dbe e08e 5f3c
00000030: 8023 97bb cab6 9abe 7042 8cbd 4aed a5be
00000040: f871 9c3d 90e2 733d 7e88 b63e eea5 693e
00000050: d05a 153e f287 02be 548d 003f fbd2 8c3e
00000060: 280a e83d 9d3b b4be 8c05 bcbe 1ce3 e9be
00000070: 1e60 823f d8ca d3bd 829b 993f a8be df3d
00000080: 3f18 a3be ac4c 983d 4c22 4abe 9d4b 453d
00000090: f57b cebe d0e1 d3bc 7d2b b13d ea4d 003e
000000a0: 7e59 2a3e ab43 993e bb4a 673f db9a 223f
000000b0: 2f85 3abf 70a0 be3c 8195 1bbf 0cfc a6bd
000000c0: d094 3e3d 80ff a03b 526b 153f 97fb 5a3f
000000d0: 0db4 0dbf c7f6 99be 3696 76be 9aa1 efbd
000000e0: 0888 0d3d bd24 a4be 1ea6 0f3e b545 78be
000000f0: a837 24bd 6565 9b3e 9441 ad3d f5ee 963e
00000100: c23d 44be 2f66 a8be d4d9 c7be 1c42 5cbe
00000110: 85ae 6f3e 908c c4bc d450 ce3e 6fde 9d3e

fc2.bias f4 [9]
-0.3087687 -0.20510954 0.8532114 0.6144226 -0.2237621 -1.0946709 -0.15132298 -0.31419894
0.37212417
00000000: ee16 9ebe 3c08 52be 106c 5a3f cd4a 1d3f
00000010: e421 65be 2d1e 8cbf 69f4 1abe afde a0be
00000020: 0f87 be3e

out.weight f4 [3, 9]
0.5303015 -0.10287508 -0.27395123 0.8080197 0.17248908 -0.5746563 -0.69146484 0.29122928
0.46491233 -0.22249004 -0.25218374 -0.0926185 -0.8673597 0.008486705 0.7637319 0.685508
0.032694787 -0.37934276 -0.6993641 0.25760946 1.0215211 0.42268738 0.10106322 -0.6188963
-0.20549981 -0.30980402 -0.81777847
00000000: d7c1 073f 2cb0 d2bd 5643 8cbe 61da 4e3f
00000010: faa0 303e ad1c 13bf d703 31bf 011c 953e
00000020: fd08 ee3e 6ed4 63be 3a1e 81be c5ae bdbd
00000030: 490b 5ebf d20b 0b3c ef83 433f 747d 2f3f
00000040: f8ea 053d 3739 c2be 8709 33bf 63e5 833e
00000050: 34c1 823f 7b6a d83e 3cfa ce3d fd6f 1ebf
00000060: 8b6e 52be a29e 9ebe ee59 51bf

out.bias f4 [3]
0.62963915 -0.34965357 0.10356958
00000000: 0830 213f cb05 b3be 4a1c d43d
